…
2025-12-03 15:04:07.225452: I tensorflow/core/platform/cpu_feature_guard.cc:210] This TensorFlow binary is optimized to use available CPU instructions in performance-critical operations.
To enable the following instructions: SSE3 SSE4.1 SSE4.2 AVX AVX2 AVX_VNNI FMA, in other operations, rebuild TensorFlow with the appropriate compiler flags.

[INFO] Model Summary:
Model: "functional"
+--------------------------------------------------------------------------+
| Layer (type)                    | Output Shape           |       Param # |
|---------------------------------+------------------------+---------------|
| input_layer_1 (InputLayer)      | (None, 224, 224, 3)    |             0 |
|---------------------------------+------------------------+---------------|
| true_divide (TrueDivide)        | (None, 224, 224, 3)    |             0 |
|---------------------------------+------------------------+---------------|
| add (Add)                       | (None, 224, 224, 3)    |             0 |
|---------------------------------+------------------------+---------------|
| true_divide_1 (TrueDivide)      | (None, 224, 224, 3)    |             0 |
|---------------------------------+------------------------+---------------|
| densenet121 (Functional)        | (None, 7, 7, 1024)     |     7,037,504 |
|---------------------------------+------------------------+---------------|
| global_average_pooling2d        | (None, 1024)           |             0 |
| (GlobalAveragePooling2D)        |                        |               |
|---------------------------------+------------------------+---------------|
| dropout (Dropout)               | (None, 1024)           |             0 |
|---------------------------------+------------------------+---------------|
| dense (Dense)                   | (None, 512)            |       524,800 |
|---------------------------------+------------------------+---------------|
| batch_normalization             | (None, 512)            |         2,048 |
| (BatchNormalization)            |                        |               |
|---------------------------------+------------------------+---------------|
| dropout_1 (Dropout)             | (None, 512)            |             0 |
|---------------------------------+------------------------+---------------|
| dense_1 (Dense)                 | (None, 256)            |       131,328 |
|---------------------------------+------------------------+---------------|
| batch_normalization_1           | (None, 256)            |         1,024 |
| (BatchNormalization)            |                        |               |
|---------------------------------+------------------------+---------------|
| dropout_2 (Dropout)             | (None, 256)            |             0 |
|---------------------------------+------------------------+---------------|
| dense_2 (Dense)                 | (None, 2)              |           514 |
+--------------------------------------------------------------------------+
 Total params: 7,697,218 (29.36 MB)
 Trainable params: 658,178 (2.51 MB)
 Non-trainable params: 7,039,040 (26.85 MB)

[INFO] Starting training (Phase 1: Frozen base model)...
   Epochs: 50
   Batch size: 32
   Learning rate: 0.001
Epoch 1/50

[1m 1/36[0m [37m====================[0m [1m1:03:12[0m 108s/step - accuracy: 0.5625 - loss: 1.2626 - top_k_categorical_accuracy: 1.0000
…
